…
= 256, activation = 'relu', input_shape = c(784)) %>% \n  layer_dropout(rate = 0.4) %>% \n  layer_dense(units = 128, activation = 'relu') %>%\n  layer_dropout(rate = 0.3) %>%\n  layer_dense(units = 10, activation = 'softmax')\nsummary(model)\n```\n\n::: {.cell-output .cell-output-stdout}\n```\nModel: \"sequential\"\n________________________________________________________________________________\n Layer (type)                       Output Shape                    Param #     \n================================================================================\n dense_2 (Dense)                    (None, 256)                     200960      \n dropout_1 (Dropout)                (None, 256)                     0           \n dense_1 (Dense)                    (None, 128)                     32896       \n dropout (Dropout)                  (None, 128)                     0           \n dense (Dense)                      (None, 10)                      1290        \n================================================================================\nTotal params: 235,146\nTrainable params: 235,146\nNon-trainable params: 0\n________________________________________________________________________________\n```\n:::\n:::\n\n\n## Ejemplo: continuación\n\nCompilamos y entrenamos el modelo:\n\n\n::: {.cell layout-align=\"center\"}\n\n```{.r .cell-code}\nmodel
…
 = c(2,2)) %>% \n  layer_conv_2d(filters = 64, kernel_size = c(3,3), activation = \"relu\") %>% \n  layer_max_pooling_2d(pool_size = c(2,2)) %>% \n  layer_conv_2d(filters = 64, kernel_size = c(3,3), activation = \"relu\")\n\nsummary(model)\n```\n\n::: {.cell-output .cell-output-stdout}\n```\nModel: \"sequential_1\"\n________________________________________________________________________________\n Layer (type)                       Output Shape                    Param #     \n================================================================================\n conv2d_2 (Conv2D)                  (None, 30, 30, 32)              896         \n max_pooling2d_1 (MaxPooling2D)     (None, 15, 15, 32)              0           \n conv2d_1 (Conv2D)                  (None, 13, 13, 64)              18496       \n max_pooling2d (MaxPooling2D)       (None, 6, 6, 64)                0           \n conv2d (Conv2D)                    (None, 4, 4, 64)                36928       \n================================================================================\nTotal params: 56,320\nTrainable params: 56,320\nNon-trainable params: 0\n________________________________________________________________________________\n```\n:::\n:::\n\n\n## Ejemplo 2: continuación\n\n\n::: {.cell}\n\n```{.r .cell-code}\nmodel %>% \n  layer_flatten() %>% \n  layer_dense(units = 64, activation = \"relu\") %>% \n  layer_dense(units = 10, activation = \"softmax\")\nsummary(model)\n```\n\n::: {.cell-output .cell-output-stdout}\n```\nModel: \"sequential_1\"\n________________________________________________________________________________\n Layer (type)                       Output Shape                    Param #     \n================================================================================\n conv2d_2 (Conv2D)                  (None, 30, 30, 32)              896         \n max_pooling2d_1 (MaxPooling2D)     (None, 15, 15, 32)              0           \n conv2d_1 (Conv2D)                  (None, 13, 13, 64)              18496       \n max_pooling2d (MaxPooling2D)       (None, 6, 6, 64)                0           \n conv2d (Conv2D)                    (None, 4, 4, 64)                36928       \n flatten (Flatten)                  (None, 1024)                    0           \n dense_4 (Dense)                    (None, 64)                      65600       \n dense_3 (Dense)                    (None, 10)                      650         \n================================================================================\nTotal params: 122,570\nTrainable params: 122,570\nNon-trainable params: 0\n________________________________________________________________________________\n```\n:::\n:::\n\n\n## Ejemplo 2: continuación\n\nCompilamos y entrenamos el modelo:\n\n\n::: {.cell layout-align=\"center\"}\n\n```{.r .cell-code}\nmo
…
